--output.shape: torch.Size([1, 50])
--Base Params:86.23M, MACs:103.40G
--Base Acc:0.0000
ASTSdpaSelfAttention(
  (query): Linear(in_features=768, out_features=72, bias=True)
  (key): Linear(in_features=768, out_features=72, bias=True)
  (value): Linear(in_features=768, out_features=72, bias=True)
  (dropout): Dropout(p=0.0, inplace=False)
)
num_heads: 12 head_dims: 64 all_head_size: 768 =>
num_heads: 12 head_dims: 6 all_head_size: 72

ASTSdpaSelfAttention(
  (query): Linear(in_features=768, out_features=72, bias=True)
  (key): Linear(in_features=768, out_features=72, bias=True)
  (value): Linear(in_features=768, out_features=72, bias=True)
  (dropout): Dropout(p=0.0, inplace=False)
)
num_heads: 12 head_dims: 64 all_head_size: 768 =>
num_heads: 12 head_dims: 6 all_head_size: 72

ASTSdpaSelfAttention(
  (query): Linear(in_features=768, out_features=72, bias=True)
  (key): Linear(in_features=768, out_features=72, bias=True)
  (value): Linear(in_features=768, out_features=72, bias=True)
  (dropout): Dropout(p=0.0, inplace=False)
)
num_heads: 12 head_dims: 64 all_head_size: 768 =>
num_heads: 12 head_dims: 6 all_head_size: 72

ASTSdpaSelfAttention(
  (query): Linear(in_features=768, out_features=72, bias=True)
  (key): Linear(in_features=768, out_features=72, bias=True)
  (value): Linear(in_features=768, out_features=72, bias=True)
  (dropout): Dropout(p=0.0, inplace=False)
)
num_heads: 12 head_dims: 64 all_head_size: 768 =>
num_heads: 12 head_dims: 6 all_head_size: 72

ASTSdpaSelfAttention(
  (query): Linear(in_features=768, out_features=72, bias=True)
  (key): Linear(in_features=768, out_features=72, bias=True)
  (value): Linear(in_features=768, out_features=72, bias=True)
  (dropout): Dropout(p=0.0, inplace=False)
)
num_heads: 12 head_dims: 64 all_head_size: 768 =>
num_heads: 12 head_dims: 6 all_head_size: 72

ASTSdpaSelfAttention(
  (query): Linear(in_features=768, out_features=72, bias=True)
  (key): Linear(in_features=768, out_features=72, bias=True)
  (value): Linear(in_features=768, out_features=72, bias=True)
  (dropout): Dropout(p=0.0, inplace=False)
)
num_heads: 12 head_dims: 64 all_head_size: 768 =>
num_heads: 12 head_dims: 6 all_head_size: 72

ASTSdpaSelfAttention(
  (query): Linear(in_features=768, out_features=72, bias=True)
  (key): Linear(in_features=768, out_features=72, bias=True)
  (value): Linear(in_features=768, out_features=72, bias=True)
  (dropout): Dropout(p=0.0, inplace=False)
)
num_heads: 12 head_dims: 64 all_head_size: 768 =>
num_heads: 12 head_dims: 6 all_head_size: 72

ASTSdpaSelfAttention(
  (query): Linear(in_features=768, out_features=72, bias=True)
  (key): Linear(in_features=768, out_features=72, bias=True)
  (value): Linear(in_features=768, out_features=72, bias=True)
  (dropout): Dropout(p=0.0, inplace=False)
)
num_heads: 12 head_dims: 64 all_head_size: 768 =>
num_heads: 12 head_dims: 6 all_head_size: 72

ASTSdpaSelfAttention(
  (query): Linear(in_features=768, out_features=72, bias=True)
  (key): Linear(in_features=768, out_features=72, bias=True)
  (value): Linear(in_features=768, out_features=72, bias=True)
  (dropout): Dropout(p=0.0, inplace=False)
)
num_heads: 12 head_dims: 64 all_head_size: 768 =>
num_heads: 12 head_dims: 6 all_head_size: 72

ASTSdpaSelfAttention(
  (query): Linear(in_features=768, out_features=72, bias=True)
  (key): Linear(in_features=768, out_features=72, bias=True)
  (value): Linear(in_features=768, out_features=72, bias=True)
  (dropout): Dropout(p=0.0, inplace=False)
)
num_heads: 12 head_dims: 64 all_head_size: 768 =>
num_heads: 12 head_dims: 6 all_head_size: 72

ASTSdpaSelfAttention(
  (query): Linear(in_features=768, out_features=72, bias=True)
  (key): Linear(in_features=768, out_features=72, bias=True)
  (value): Linear(in_features=768, out_features=72, bias=True)
  (dropout): Dropout(p=0.0, inplace=False)
)
num_heads: 12 head_dims: 64 all_head_size: 768 =>
num_heads: 12 head_dims: 6 all_head_size: 72

ASTSdpaSelfAttention(
  (query): Linear(in_features=768, out_features=72, bias=True)
  (key): Linear(in_features=768, out_features=72, bias=True)
  (value): Linear(in_features=768, out_features=72, bias=True)
  (dropout): Dropout(p=0.0, inplace=False)
)
num_heads: 12 head_dims: 64 all_head_size: 768 =>
num_heads: 12 head_dims: 6 all_head_size: 72

>-------------------Summary---------------------
--Base Param: 86.23M, Macs: 103.40G, Acc: 0.0000%
--Pruned Param: 9.55M, Macs: 10.38G, Acc: 0.0000%
<------------------------------------------------
--output.shape: torch.Size([1, 50])
--Base Params:86.23M, MACs:103.40G
--Loading: pths/esc50_1-ast-seed_42.pth
--Base Acc:0.9450
ASTSdpaSelfAttention(
  (query): Linear(in_features=768, out_features=768, bias=True)
  (key): Linear(in_features=768, out_features=768, bias=True)
  (value): Linear(in_features=768, out_features=768, bias=True)
  (dropout): Dropout(p=0.0, inplace=False)
)
num_heads: 12 head_dims: 64 all_head_size: 768 =>
num_heads: 12 head_dims: 64 all_head_size: 768

ASTSdpaSelfAttention(
  (query): Linear(in_features=768, out_features=768, bias=True)
  (key): Linear(in_features=768, out_features=768, bias=True)
  (value): Linear(in_features=768, out_features=768, bias=True)
  (dropout): Dropout(p=0.0, inplace=False)
)
num_heads: 12 head_dims: 64 all_head_size: 768 =>
num_heads: 12 head_dims: 64 all_head_size: 768

ASTSdpaSelfAttention(
  (query): Linear(in_features=768, out_features=768, bias=True)
  (key): Linear(in_features=768, out_features=768, bias=True)
  (value): Linear(in_features=768, out_features=768, bias=True)
  (dropout): Dropout(p=0.0, inplace=False)
)
num_heads: 12 head_dims: 64 all_head_size: 768 =>
num_heads: 12 head_dims: 64 all_head_size: 768

ASTSdpaSelfAttention(
  (query): Linear(in_features=768, out_features=768, bias=True)
  (key): Linear(in_features=768, out_features=768, bias=True)
  (value): Linear(in_features=768, out_features=768, bias=True)
  (dropout): Dropout(p=0.0, inplace=False)
)
num_heads: 12 head_dims: 64 all_head_size: 768 =>
num_heads: 12 head_dims: 64 all_head_size: 768

ASTSdpaSelfAttention(
  (query): Linear(in_features=768, out_features=768, bias=True)
  (key): Linear(in_features=768, out_features=768, bias=True)
  (value): Linear(in_features=768, out_features=768, bias=True)
  (dropout): Dropout(p=0.0, inplace=False)
)
num_heads: 12 head_dims: 64 all_head_size: 768 =>
num_heads: 12 head_dims: 64 all_head_size: 768

ASTSdpaSelfAttention(
  (query): Linear(in_features=768, out_features=768, bias=True)
  (key): Linear(in_features=768, out_features=768, bias=True)
  (value): Linear(in_features=768, out_features=768, bias=True)
  (dropout): Dropout(p=0.0, inplace=False)
)
num_heads: 12 head_dims: 64 all_head_size: 768 =>
num_heads: 12 head_dims: 64 all_head_size: 768

ASTSdpaSelfAttention(
  (query): Linear(in_features=768, out_features=768, bias=True)
  (key): Linear(in_features=768, out_features=768, bias=True)
  (value): Linear(in_features=768, out_features=768, bias=True)
  (dropout): Dropout(p=0.0, inplace=False)
)
num_heads: 12 head_dims: 64 all_head_size: 768 =>
num_heads: 12 head_dims: 64 all_head_size: 768

ASTSdpaSelfAttention(
  (query): Linear(in_features=768, out_features=768, bias=True)
  (key): Linear(in_features=768, out_features=768, bias=True)
  (value): Linear(in_features=768, out_features=768, bias=True)
  (dropout): Dropout(p=0.0, inplace=False)
)
num_heads: 12 head_dims: 64 all_head_size: 768 =>
num_heads: 12 head_dims: 64 all_head_size: 768

ASTSdpaSelfAttention(
  (query): Linear(in_features=768, out_features=768, bias=True)
  (key): Linear(in_features=768, out_features=768, bias=True)
  (value): Linear(in_features=768, out_features=768, bias=True)
  (dropout): Dropout(p=0.0, inplace=False)
)
num_heads: 12 head_dims: 64 all_head_size: 768 =>
num_heads: 12 head_dims: 64 all_head_size: 768

ASTSdpaSelfAttention(
  (query): Linear(in_features=768, out_features=768, bias=True)
  (key): Linear(in_features=768, out_features=768, bias=True)
  (value): Linear(in_features=768, out_features=768, bias=True)
  (dropout): Dropout(p=0.0, inplace=False)
)
num_heads: 12 head_dims: 64 all_head_size: 768 =>
num_heads: 12 head_dims: 64 all_head_size: 768

ASTSdpaSelfAttention(
  (query): Linear(in_features=768, out_features=768, bias=True)
  (key): Linear(in_features=768, out_features=768, bias=True)
  (value): Linear(in_features=768, out_features=768, bias=True)
  (dropout): Dropout(p=0.0, inplace=False)
)
num_heads: 12 head_dims: 64 all_head_size: 768 =>
num_heads: 12 head_dims: 64 all_head_size: 768

ASTSdpaSelfAttention(
  (query): Linear(in_features=768, out_features=768, bias=True)
  (key): Linear(in_features=768, out_features=768, bias=True)
  (value): Linear(in_features=768, out_features=768, bias=True)
  (dropout): Dropout(p=0.0, inplace=False)
)
num_heads: 12 head_dims: 64 all_head_size: 768 =>
num_heads: 12 head_dims: 64 all_head_size: 768

--Epoch 1/30: Loss-t/v: 0.0346/0.2349, Acc-t/v: 0.7169/0.9450, Best Acc 0.9450 Time: 40.44s
--Epoch 2/30: Loss-t/v: 0.0286/0.2246, Acc-t/v: 0.7662/0.9300, Best Acc 0.9450 Time: 82.54s
--Epoch 3/30: Loss-t/v: 0.0264/0.2218, Acc-t/v: 0.7931/0.9425, Best Acc 0.9450 Time: 125.38s
…
--Epoch 28/30: Loss-t/v: 0.0329/0.2143, Acc-t/v: 0.7350/0.9475, Best Acc 0.9475 Time: 1645.32s
--Epoch 29/30: Loss-t/v: 0.0159/0.2462, Acc-t/v: 0.8762/0.9175, Best Acc 0.9475 Time: 1738.03s
--Epoch 30/30: Loss-t/v: 0.0208/0.2530, Acc-t/v: 0.8325/0.9250, Best Acc 0.9475 Time: 1831.88s
--Post Train Acc:0.9250
>-------------------Summary---------------------
--Base Param: 86.23M, Macs: 103.40G, Acc: 94.5000%
--Pruned Param: 80.44M, Macs: 96.38G, Acc: 92.5000%
<------------------------------------------------
--output.shape: torch.Size([1, 50])
--Base Params:86.23M, MACs:103.40G
--Loading: pths/esc50_1-ast-seed_42.pth
--Base Acc:0.9450
ASTSdpaSelfAttention(
  (query): Linear(in_features=768, out_features=768, bias=True)
  (key): Linear(in_features=768, out_features=768, bias=True)
  (value): Linear(in_features=768, out_features=768, bias=True)
  (dropout): Dropout(p=0.0, inplace=False)
)
num_heads: 12 head_dims: 64 all_head_size: 768 =>
num_heads: 12 head_dims: 64 all_head_size: 768

ASTSdpaSelfAttention(
  (query): Linear(in_features=768, out_features=768, bias=True)
  (key): Linear(in_features=768, out_features=768, bias=True)
  (value): Linear(in_features=768, out_features=768, bias=True)
  (dropout): Dropout(p=0.0, inplace=False)
)
num_heads: 12 head_dims: 64 all_head_size: 768 =>
num_heads: 12 head_dims: 64 all_head_size: 768

ASTSdpaSelfAttention(
  (query): Linear(in_features=768, out_features=768, bias=True)
  (key): Linear(in_features=768, out_features=768, bias=True)
  (value): Linear(in_features=768, out_features=768, bias=True)
  (dropout): Dropout(p=0.0, inplace=False)
)
num_heads: 12 head_dims: 64 all_head_size: 768 =>
num_heads: 12 head_dims: 64 all_head_size: 768

ASTSdpaSelfAttention(
  (query): Linear(in_features=768, out_features=768, bias=True)
  (key): Linear(in_features=768, out_features=768, bias=True)
  (value): Linear(in_features=768, out_features=768, bias=True)
  (dropout): Dropout(p=0.0, inplace=False)
)
num_heads: 12 head_dims: 64 all_head_size: 768 =>
num_heads: 12 head_dims: 64 all_head_size: 768

ASTSdpaSelfAttention(
  (query): Linear(in_features=768, out_features=768, bias=True)
  (key): Linear(in_features=768, out_features=768, bias=True)
  (value): Linear(in_features=768, out_features=768, bias=True)
  (dropout): Dropout(p=0.0, inplace=False)
)
num_heads: 12 head_dims: 64 all_head_size: 768 =>
num_heads: 12 head_dims: 64 all_head_size: 768

ASTSdpaSelfAttention(
  (query): Linear(in_features=768, out_features=768, bias=True)
  (key): Linear(in_features=768, out_features=768, bias=True)
  (value): Linear(in_features=768, out_features=768, bias=True)
  (dropout): Dropout(p=0.0, inplace=False)
)
num_heads: 12 head_dims: 64 all_head_size: 768 =>
num_heads: 12 head_dims: 64 all_head_size: 768

ASTSdpaSelfAttention(
  (query): Linear(in_features=768, out_features=768, bias=True)
  (key): Linear(in_features=768, out_features=768, bias=True)
  (value): Linear(in_features=768, out_features=768, bias=True)
  (dropout): Dropout(p=0.0, inplace=False)
)
num_heads: 12 head_dims: 64 all_head_size: 768 =>
num_heads: 12 head_dims: 64 all_head_size: 768

ASTSdpaSelfAttention(
  (query): Linear(in_features=768, out_features=768, bias=True)
  (key): Linear(in_features=768, out_features=768, bias=True)
  (value): Linear(in_features=768, out_features=768, bias=True)
  (dropout): Dropout(p=0.0, inplace=False)
)
num_heads: 12 head_dims: 64 all_head_size: 768 =>
num_heads: 12 head_dims: 64 all_head_size: 768

ASTSdpaSelfAttention(
  (query): Linear(in_features=768, out_features=768, bias=True)
  (key): Linear(in_features=768, out_features=768, bias=True)
  (value): Linear(in_features=768, out_features=768, bias=True)
  (dropout): Dropout(p=0.0, inplace=False)
)
num_heads: 12 head_dims: 64 all_head_size: 768 =>
num_heads: 12 head_dims: 64 all_head_size: 768

ASTSdpaSelfAttention(
  (query): Linear(in_features=768, out_features=768, bias=True)
  (key): Linear(in_features=768, out_features=768, bias=True)
  (value): Linear(in_features=768, out_features=768, bias=True)
  (dropout): Dropout(p=0.0, inplace=False)
)
num_heads: 12 head_dims: 64 all_head_size: 768 =>
num_heads: 12 head_dims: 64 all_head_size: 768

ASTSdpaSelfAttention(
  (query): Linear(in_features=768, out_features=768, bias=True)
  (key): Linear(in_features=768, out_features=768, bias=True)
  (value): Linear(in_features=768, out_features=768, bias=True)
  (dropout): Dropout(p=0.0, inplace=False)
)
num_heads: 12 head_dims: 64 all_head_size: 768 =>
num_heads: 12 head_dims: 64 all_head_size: 768

ASTSdpaSelfAttention(
  (query): Linear(in_features=768, out_features=768, bias=True)
  (key): Linear(in_features=768, out_features=768, bias=True)
  (value): Linear(in_features=768, out_features=768, bias=True)
  (dropout): Dropout(p=0.0, inplace=False)
)
num_heads: 12 head_dims: 64 all_head_size: 768 =>
num_heads: 12 head_dims: 64 all_head_size: 768

--Epoch 1/30: Loss-t/v: 0.0180/0.2433, Acc-t/v: 0.8531/0.9300, Best Acc 0.9300 Time: 84.42s
--Epoch 2/30: Loss-t/v: 0.0160/0.2740, Acc-t/v: 0.8738/0.9400, Best Acc 0.9400 Time: 168.22s
--Epoch 3/30: Loss-t/v: 0.0273/0.2137, Acc-t/v: 0.7844/0.9350, Best Acc 0.9400 Time: 252.34s
…
