--output.shape: torch.Size([1, 50])
--Base Params:86.23M, MACs:103.40G
--Base Acc:0.0000
ASTSdpaSelfAttention(
  (query): Linear(in_features=768, out_features=72, bias=True)
  (key): Linear(in_features=768, out_features=72, bias=True)
  (value): Linear(in_features=768, out_features=72, bias=True)
  (dropout): Dropout(p=0.0, inplace=False)
)
num_heads: 12 head_dims: 64 all_head_size: 768 =>
num_heads: 12 head_dims: 6 all_head_size: 72

ASTSdpaSelfAttention(
  (query): Linear(in_features=768, out_features=72, bias=True)
  (key): Linear(in_features=768, out_features=72, bias=True)
  (value): Linear(in_features=768, out_features=72, bias=True)
  (dropout): Dropout(p=0.0, inplace=False)
)
num_heads: 12 head_dims: 64 all_head_size: 768 =>
num_heads: 12 head_dims: 6 all_head_size: 72

ASTSdpaSelfAttention(
  (query): Linear(in_features=768, out_features=72, bias=True)
  (key): Linear(in_features=768, out_features=72, bias=True)
  (value): Linear(in_features=768, out_features=72, bias=True)
  (dropout): Dropout(p=0.0, inplace=False)
)
num_heads: 12 head_dims: 64 all_head_size: 768 =>
num_heads: 12 head_dims: 6 all_head_size: 72

ASTSdpaSelfAttention(
  (query): Linear(in_features=768, out_features=72, bias=True)
  (key): Linear(in_features=768, out_features=72, bias=True)
  (value): Linear(in_features=768, out_features=72, bias=True)
  (dropout): Dropout(p=0.0, inplace=False)
)
num_heads: 12 head_dims: 64 all_head_size: 768 =>
num_heads: 12 head_dims: 6 all_head_size: 72

ASTSdpaSelfAttention(
  (query): Linear(in_features=768, out_features=72, bias=True)
  (key): Linear(in_features=768, out_features=72, bias=True)
  (value): Linear(in_features=768, out_features=72, bias=True)
  (dropout): Dropout(p=0.0, inplace=False)
)
num_heads: 12 head_dims: 64 all_head_size: 768 =>
num_heads: 12 head_dims: 6 all_head_size: 72

ASTSdpaSelfAttention(
  (query): Linear(in_features=768, out_features=72, bias=True)
  (key): Linear(in_features=768, out_features=72, bias=True)
  (value): Linear(in_features=768, out_features=72, bias=True)
  (dropout): Dropout(p=0.0, inplace=False)
)
num_heads: 12 head_dims: 64 all_head_size: 768 =>
num_heads: 12 head_dims: 6 all_head_size: 72

ASTSdpaSelfAttention(
  (query): Linear(in_features=768, out_features=72, bias=True)
  (key): Linear(in_features=768, out_features=72, bias=True)
  (value): Linear(in_features=768, out_features=72, bias=True)
  (dropout): Dropout(p=0.0, inplace=False)
)
num_heads: 12 head_dims: 64 all_head_size: 768 =>
num_heads: 12 head_dims: 6 all_head_size: 72

ASTSdpaSelfAttention(
  (query): Linear(in_features=768, out_features=72, bias=True)
  (key): Linear(in_features=768, out_features=72, bias=True)
  (value): Linear(in_features=768, out_features=72, bias=True)
  (dropout): Dropout(p=0.0, inplace=False)
)
num_heads: 12 head_dims: 64 all_head_size: 768 =>
num_heads: 12 head_dims: 6 all_head_size: 72

ASTSdpaSelfAttention(
  (query): Linear(in_features=768, out_features=72, bias=True)
  (key): Linear(in_features=768, out_features=72, bias=True)
  (value): Linear(in_features=768, out_features=72, bias=True)
  (dropout): Dropout(p=0.0, inplace=False)
)
num_heads: 12 head_dims: 64 all_head_size: 768 =>
num_heads: 12 head_dims: 6 all_head_size: 72

ASTSdpaSelfAttention(
  (query): Linear(in_features=768, out_features=72, bias=True)
  (key): Linear(in_features=768, out_features=72, bias=True)
  (value): Linear(in_features=768, out_features=72, bias=True)
  (dropout): Dropout(p=0.0, inplace=False)
)
num_heads: 12 head_dims: 64 all_head_size: 768 =>
num_heads: 12 head_dims: 6 all_head_size: 72

ASTSdpaSelfAttention(
  (query): Linear(in_features=768, out_features=72, bias=True)
  (key): Linear(in_features=768, out_features=72, bias=True)
  (value): Linear(in_features=768, out_features=72, bias=True)
  (dropout): Dropout(p=0.0, inplace=False)
)
num_heads: 12 head_dims: 64 all_head_size: 768 =>
num_heads: 12 head_dims: 6 all_head_size: 72

ASTSdpaSelfAttention(
  (query): Linear(in_features=768, out_features=72, bias=True)
  (key): Linear(in_features=768, out_features=72, bias=True)
  (value): Linear(in_features=768, out_features=72, bias=True)
  (dropout): Dropout(p=0.0, inplace=False)
)
num_heads: 12 head_dims: 64 all_head_size: 768 =>
num_heads: 12 head_dims: 6 all_head_size: 72

>-------------------Summary---------------------
--Base Param: 86.23M, Macs: 103.40G, Acc: 0.0000%
--Pruned Param: 9.55M, Macs: 10.38G, Acc: 0.0000%
<------------------------------------------------
--output.shape: torch.Size([1, 50])
--Base Params:86.23M, MACs:103.40G
--Loading: pths/esc50_1-ast-seed_42.pth
--Base Acc:0.9450
ASTSdpaSelfAttention(
  (query): Linear(in_features=768, out_features=768, bias=True)
  (key): Linear(in_features=768, out_features=768, bias=True)
  (value): Linear(in_features=768, out_features=768, bias=True)
  (dropout): Dropout(p=0.0, inplace=False)
)
num_heads: 12 head_dims: 64 all_head_size: 768 =>
num_heads: 12 head_dims: 64 all_head_size: 768

ASTSdpaSelfAttention(
  (query): Linear(in_features=768, out_features=768, bias=True)
  (key): Linear(in_features=768, out_features=768, bias=True)
  (value): Linear(in_features=768, out_features=768, bias=True)
  (dropout): Dropout(p=0.0, inplace=False)
)
num_heads: 12 head_dims: 64 all_head_size: 768 =>
num_heads: 12 head_dims: 64 all_head_size: 768

ASTSdpaSelfAttention(
  (query): Linear(in_features=768, out_features=768, bias=True)
  (key): Linear(in_features=768, out_features=768, bias=True)
  (value): Linear(in_features=768, out_features=768, bias=True)
  (dropout): Dropout(p=0.0, inplace=False)
)
num_heads: 12 head_dims: 64 all_head_size: 768 =>
num_heads: 12 head_dims: 64 all_head_size: 768

ASTSdpaSelfAttention(
  (query): Linear(in_features=768, out_features=768, bias=True)
  (key): Linear(in_features=768, out_features=768, bias=True)
  (value): Linear(in_features=768, out_features=768, bias=True)
  (dropout): Dropout(p=0.0, inplace=False)
)
num_heads: 12 head_dims: 64 all_head_size: 768 =>
num_heads: 12 head_dims: 64 all_head_size: 768

ASTSdpaSelfAttention(
  (query): Linear(in_features=768, out_features=768, bias=True)
  (key): Linear(in_features=768, out_features=768, bias=True)
  (value): Linear(in_features=768, out_features=768, bias=True)
  (dropout): Dropout(p=0.0, inplace=False)
)
num_heads: 12 head_dims: 64 all_head_size: 768 =>
num_heads: 12 head_dims: 64 all_head_size: 768

ASTSdpaSelfAttention(
  (query): Linear(in_features=768, out_features=768, bias=True)
  (key): Linear(in_features=768, out_features=768, bias=True)
  (value): Linear(in_features=768, out_features=768, bias=True)
  (dropout): Dropout(p=0.0, inplace=False)
)
num_heads: 12 head_dims: 64 all_head_size: 768 =>
num_heads: 12 head_dims: 64 all_head_size: 768

ASTSdpaSelfAttention(
  (query): Linear(in_features=768, out_features=768, bias=True)
  (key): Linear(in_features=768, out_features=768, bias=True)
  (value): Linear(in_features=768, out_features=768, bias=True)
  (dropout): Dropout(p=0.0, inplace=False)
)
num_heads: 12 head_dims: 64 all_head_size: 768 =>
num_heads: 12 head_dims: 64 all_head_size: 768

ASTSdpaSelfAttention(
  (query): Linear(in_features=768, out_features=768, bias=True)
  (key): Linear(in_features=768, out_features=768, bias=True)
  (value): Linear(in_features=768, out_features=768, bias=True)
  (dropout): Dropout(p=0.0, inplace=False)
)
num_heads: 12 head_dims: 64 all_head_size: 768 =>
num_heads: 12 head_dims: 64 all_head_size: 768

ASTSdpaSelfAttention(
  (query): Linear(in_features=768, out_features=768, bias=True)
  (key): Linear(in_features=768, out_features=768, bias=True)
  (value): Linear(in_features=768, out_features=768, bias=True)
  (dropout): Dropout(p=0.0, inplace=False)
)
num_heads: 12 head_dims: 64 all_head_size: 768 =>
num_heads: 12 head_dims: 64 all_head_size: 768

ASTSdpaSelfAttention(
  (query): Linear(in_features=768, out_features=768, bias=True)
  (key): Linear(in_features=768, out_features=768, bias=True)
  (value): Linear(in_features=768, out_features=768, bias=True)
  (dropout): Dropout(p=0.0, inplace=False)
)
num_heads: 12 head_dims: 64 all_head_size: 768 =>
num_heads: 12 head_dims: 64 all_head_size: 768

ASTSdpaSelfAttention(
  (query): Linear(in_features=768, out_features=768, bias=True)
  (key): Linear(in_features=768, out_features=768, bias=True)
  (value): Linear(in_features=768, out_features=768, bias=True)
  (dropout): Dropout(p=0.0, inplace=False)
)
num_heads: 12 head_dims: 64 all_head_size: 768 =>
num_heads: 12 head_dims: 64 all_head_size: 768

ASTSdpaSelfAttention(
  (query): Linear(in_features=768, out_features=768, bias=True)
  (key): Linear(in_features=768, out_features=768, bias=True)
  (value): Linear(in_features=768, out_features=768, bias=True)
  (dropout): Dropout(p=0.0, inplace=False)
)
num_heads: 12 head_dims: 64 all_head_size: 768 =>
num_heads: 12 head_dims: 64 all_head_size: 768

--Epoch 1/30: Loss-t/v: 0.0346/0.2349, Acc-t/v: 0.7169/0.9450, Best Acc 0.9450 Time: 40.01s
--Epoch 2/30: Loss-t/v: 0.0286/0.2247, Acc-t/v: 0.7662/0.9300, Best Acc 0.9450 Time: 79.51s
--Epoch 3/30: Loss-t/v: 0.0264/0.2219, Acc-t/v: 0.7931/0.9425, Best Acc 0.9450 Time: 119.58s
…
--Epoch 28/30: Loss-t/v: 0.0329/0.2144, Acc-t/v: 0.7350/0.9475, Best Acc 0.9475 Time: 1139.65s
--Epoch 29/30: Loss-t/v: 0.0159/0.2461, Acc-t/v: 0.8762/0.9175, Best Acc 0.9475 Time: 1180.95s
--Epoch 30/30: Loss-t/v: 0.0208/0.2530, Acc-t/v: 0.8325/0.9250, Best Acc 0.9475 Time: 1222.35s
--Post Train Acc:0.9250
>-------------------Summary---------------------
--Base Param: 86.23M, Macs: 103.40G, Acc: 94.5000%
--Pruned Param: 80.44M, Macs: 96.38G, Acc: 92.5000%
<------------------------------------------------
--output.shape: torch.Size([1, 50])
--Base Params:86.23M, MACs:103.40G
--Loading: pths/esc50_1-ast-seed_42.pth
--Base Acc:0.9450
ASTSdpaSelfAttention(
  (query): Linear(in_features=768, out_features=768, bias=True)
  (key): Linear(in_features=768, out_features=768, bias=True)
  (value): Linear(in_features=768, out_features=768, bias=True)
  (dropout): Dropout(p=0.0, inplace=False)
)
num_heads: 12 head_dims: 64 all_head_size: 768 =>
num_heads: 12 head_dims: 64 all_head_size: 768

ASTSdpaSelfAttention(
  (query): Linear(in_features=768, out_features=768, bias=True)
  (key): Linear(in_features=768, out_features=768, bias=True)
  (value): Linear(in_features=768, out_features=768, bias=True)
  (dropout): Dropout(p=0.0, inplace=False)
)
num_heads: 12 head_dims: 64 all_head_size: 768 =>
num_heads: 12 head_dims: 64 all_head_size: 768

ASTSdpaSelfAttention(
  (query): Linear(in_features=768, out_features=768, bias=True)
  (key): Linear(in_features=768, out_features=768, bias=True)
  (value): Linear(in_features=768, out_features=768, bias=True)
  (dropout): Dropout(p=0.0, inplace=False)
)
num_heads: 12 head_dims: 64 all_head_size: 768 =>
num_heads: 12 head_dims: 64 all_head_size: 768

ASTSdpaSelfAttention(
  (query): Linear(in_features=768, out_features=768, bias=True)
  (key): Linear(in_features=768, out_features=768, bias=True)
  (value): Linear(in_features=768, out_features=768, bias=True)
  (dropout): Dropout(p=0.0, inplace=False)
)
num_heads: 12 head_dims: 64 all_head_size: 768 =>
num_heads: 12 head_dims: 64 all_head_size: 768

ASTSdpaSelfAttention(
  (query): Linear(in_features=768, out_features=768, bias=True)
  (key): Linear(in_features=768, out_features=768, bias=True)
  (value): Linear(in_features=768, out_features=768, bias=True)
  (dropout): Dropout(p=0.0, inplace=False)
)
num_heads: 12 head_dims: 64 all_head_size: 768 =>
num_heads: 12 head_dims: 64 all_head_size: 768

ASTSdpaSelfAttention(
  (query): Linear(in_features=768, out_features=768, bias=True)
  (key): Linear(in_features=768, out_features=768, bias=True)
  (value): Linear(in_features=768, out_features=768, bias=True)
  (dropout): Dropout(p=0.0, inplace=False)
)
num_heads: 12 head_dims: 64 all_head_size: 768 =>
num_heads: 12 head_dims: 64 all_head_size: 768

ASTSdpaSelfAttention(
  (query): Linear(in_features=768, out_features=768, bias=True)
  (key): Linear(in_features=768, out_features=768, bias=True)
  (value): Linear(in_features=768, out_features=768, bias=True)
  (dropout): Dropout(p=0.0, inplace=False)
)
num_heads: 12 head_dims: 64 all_head_size: 768 =>
num_heads: 12 head_dims: 64 all_head_size: 768

ASTSdpaSelfAttention(
  (query): Linear(in_features=768, out_features=768, bias=True)
  (key): Linear(in_features=768, out_features=768, bias=True)
  (value): Linear(in_features=768, out_features=768, bias=True)
  (dropout): Dropout(p=0.0, inplace=False)
)
num_heads: 12 head_dims: 64 all_head_size: 768 =>
num_heads: 12 head_dims: 64 all_head_size: 768

ASTSdpaSelfAttention(
  (query): Linear(in_features=768, out_features=768, bias=True)
  (key): Linear(in_features=768, out_features=768, bias=True)
  (value): Linear(in_features=768, out_features=768, bias=True)
  (dropout): Dropout(p=0.0, inplace=False)
)
num_heads: 12 head_dims: 64 all_head_size: 768 =>
num_heads: 12 head_dims: 64 all_head_size: 768

ASTSdpaSelfAttention(
  (query): Linear(in_features=768, out_features=768, bias=True)
  (key): Linear(in_features=768, out_features=768, bias=True)
  (value): Linear(in_features=768, out_features=768, bias=True)
  (dropout): Dropout(p=0.0, inplace=False)
)
num_heads: 12 head_dims: 64 all_head_size: 768 =>
num_heads: 12 head_dims: 64 all_head_size: 768

ASTSdpaSelfAttention(
  (query): Linear(in_features=768, out_features=768, bias=True)
  (key): Linear(in_features=768, out_features=768, bias=True)
  (value): Linear(in_features=768, out_features=768, bias=True)
  (dropout): Dropout(p=0.0, inplace=False)
)
num_heads: 12 head_dims: 64 all_head_size: 768 =>
num_heads: 12 head_dims: 64 all_head_size: 768

ASTSdpaSelfAttention(
  (query): Linear(in_features=768, out_features=768, bias=True)
  (key): Linear(in_features=768, out_features=768, bias=True)
  (value): Linear(in_features=768, out_features=768, bias=True)
  (dropout): Dropout(p=0.0, inplace=False)
)
num_heads: 12 head_dims: 64 all_head_size: 768 =>
num_heads: 12 head_dims: 64 all_head_size: 768

--Epoch 1/30: Loss-t/v: 0.0180/0.2433, Acc-t/v: 0.8531/0.9300, Best Acc 0.9300 Time: 39.09s
--Epoch 2/30: Loss-t/v: 0.0160/0.2741, Acc-t/v: 0.8738/0.9400, Best Acc 0.9400 Time: 78.80s
--Epoch 3/30: Loss-t/v: 0.0273/0.2137, Acc-t/v: 0.7844/0.9350, Best Acc 0.9400 Time: 118.27s
…
--Epoch 28/30: Loss-t/v: 0.0289/0.2679, Acc-t/v: 0.7694/0.9275, Best Acc 0.9450 Time: 1096.27s
--Epoch 29/30: Loss-t/v: 0.0148/0.2356, Acc-t/v: 0.8812/0.9375, Best Acc 0.9450 Time: 1135.84s
--Epoch 30/30: Loss-t/v: 0.0219/0.2265, Acc-t/v: 0.8213/0.9375, Best Acc 0.9450 Time: 1174.99s
--Post Train Acc:0.9375
>-------------------Summary---------------------
--Base Param: 86.23M, Macs: 103.40G, Acc: 94.5000%
--Pruned Param: 74.66M, Macs: 89.36G, Acc: 93.7500%
<------------------------------------------------
--output.shape: torch.Size([1, 50])
--Base Params:86.23M, MACs:103.40G
--Loading: pths/esc50_1-ast-seed_42.pth
--Base Acc:0.9450
ASTSdpaSelfAttention(
  (query): Linear(in_features=768, out_features=756, bias=True)
  (key): Linear(in_features=768, out_features=756, bias=True)
  (value): Linear(in_features=768, out_features=756, bias=True)
  (dropout): Dropout(p=0.0, inplace=False)
)
num_heads: 12 head_dims: 64 all_head_size: 768 =>
num_heads: 12 head_dims: 63 all_head_size: 756

ASTSdpaSelfAttention(
  (query): Linear(in_features=768, out_features=768, bias=True)
  (key): Linear(in_features=768, out_features=768, bias=True)
  (value): Linear(in_features=768, out_features=768, bias=True)
  (dropout): Dropout(p=0.0, inplace=False)
)
num_heads: 12 head_dims: 64 all_head_size: 768 =>
num_heads: 12 head_dims: 64 all_head_size: 768

ASTSdpaSelfAttention(
  (query): Linear(in_features=768, out_features=768, bias=True)
  (key): Linear(in_features=768, out_features=768, bias=True)
  (value): Linear(in_features=768, out_features=768, bias=True)
  (dropout): Dropout(p=0.0, inplace=False)
)
num_heads: 12 head_dims: 64 all_head_size: 768 =>
num_heads: 12 head_dims: 64 all_head_size: 768

ASTSdpaSelfAttention(
  (query): Linear(in_features=768, out_features=768, bias=True)
  (key): Linear(in_features=768, out_features=768, bias=True)
  (value): Linear(in_features=768, out_features=768, bias=True)
  (dropout): Dropout(p=0.0, inplace=False)
)
num_heads: 12 head_dims: 64 all_head_size: 768 =>
num_heads: 12 head_dims: 64 all_head_size: 768

ASTSdpaSelfAttention(
  (query): Linear(in_features=768, out_features=768, bias=True)
  (key): Linear(in_features=768, out_features=768, bias=True)
  (value): Linear(in_features=768, out_features=768, bias=True)
  (dropout): Dropout(p=0.0, inplace=False)
)
num_heads: 12 head_dims: 64 all_head_size: 768 =>
num_heads: 12 head_dims: 64 all_head_size: 768

ASTSdpaSelfAttention(
  (query): Linear(in_features=768, out_features=768, bias=True)
  (key): Linear(in_features=768, out_features=768, bias=True)
  (value): Linear(in_features=768, out_features=768, bias=True)
  (dropout): Dropout(p=0.0, inplace=False)
)
num_heads: 12 head_dims: 64 all_head_size: 768 =>
num_heads: 12 head_dims: 64 all_head_size: 768

ASTSdpaSelfAttention(
  (query): Linear(in_features=768, out_features=768, bias=True)
  (key): Linear(in_features=768, out_features=768, bias=True)
  (value): Linear(in_features=768, out_features=768, bias=True)
  (dropout): Dropout(p=0.0, inplace=False)
)
num_heads: 12 head_dims: 64 all_head_size: 768 =>
num_heads: 12 head_dims: 64 all_head_size: 768

ASTSdpaSelfAttention(
  (query): Linear(in_features=768, out_features=768, bias=True)
  (key): Linear(in_features=768, out_features=768, bias=True)
  (value): Linear(in_features=768, out_features=768, bias=True)
  (dropout): Dropout(p=0.0, inplace=False)
)
num_heads: 12 head_dims: 64 all_head_size: 768 =>
num_heads: 12 head_dims: 64 all_head_size: 768

ASTSdpaSelfAttention(
  (query): Linear(in_features=768, out_features=768, bias=True)
  (key): Linear(in_features=768, out_features=768, bias=True)
  (value): Linear(in_features=768, out_features=768, bias=True)
  (dropout): Dropout(p=0.0, inplace=False)
)
num_heads: 12 head_dims: 64 all_head_size: 768 =>
num_heads: 12 head_dims: 64 all_head_size: 768

ASTSdpaSelfAttention(
  (query): Linear(in_features=768, out_features=768, bias=True)
  (key): Linear(in_features=768, out_features=768, bias=True)
  (value): Linear(in_features=768, out_features=768, bias=True)
  (dropout): Dropout(p=0.0, inplace=False)
)
num_heads: 12 head_dims: 64 all_head_size: 768 =>
num_heads: 12 head_dims: 64 all_head_size: 768

ASTSdpaSelfAttention(
  (query): Linear(in_features=768, out_features=768, bias=True)
  (key): Linear(in_features=768, out_features=768, bias=True)
  (value): Linear(in_features=768, out_features=768, bias=True)
  (dropout): Dropout(p=0.0, inplace=False)
)
num_heads: 12 head_dims: 64 all_head_size: 768 =>
num_heads: 12 head_dims: 64 all_head_size: 768

ASTSdpaSelfAttention(
  (query): Linear(in_features=768, out_features=768, bias=True)
  (key): Linear(in_features=768, out_features=768, bias=True)
  (value): Linear(in_features=768, out_features=768, bias=True)
  (dropout): Dropout(p=0.0, inplace=False)
)
num_heads: 12 head_dims: 64 all_head_size: 768 =>
num_heads: 12 head_dims: 64 all_head_size: 768

--Epoch 1/30: Loss-t/v: 0.0276/0.2574, Acc-t/v: 0.7812/0.9300, Best Acc 0.9300 Time: 37.32s
--Epoch 2/30: Loss-t/v: 0.0246/0.3094, Acc-t/v: 0.8063/0.9100, Best Acc 0.9300 Time: 74.47s
--Epoch 3/30: Loss-t/v: 0.0287/0.3321, Acc-t/v: 0.7681/0.9125, Best Acc 0.9300 Time: 112.05s
…
--Epoch 28/30: Loss-t/v: 0.0168/0.2645, Acc-t/v: 0.8619/0.9175, Best Acc 0.9400 Time: 1059.36s
--Epoch 29/30: Loss-t/v: 0.0190/0.2227, Acc-t/v: 0.8438/0.9425, Best Acc 0.9425 Time: 1096.94s
--Epoch 30/30: Loss-t/v: 0.0209/0.2466, Acc-t/v: 0.8325/0.9300, Best Acc 0.9425 Time: 1134.20s
--Post Train Acc:0.9300
>-------------------Summary---------------------
--Base Param: 86.23M, Macs: 103.40G, Acc: 94.5000%
--Pruned Param: 68.84M, Macs: 82.30G, Acc: 93.0000%
<------------------------------------------------
--output.shape: torch.Size([1, 50])
--Base Params:86.23M, MACs:103.40G
--Loading: pths/esc50_1-ast-seed_42.pth
--Base Acc:0.9450
ASTSdpaSelfAttention(
  (query): Linear(in_features=768, out_features=636, bias=True)
  (key): Linear(in_features=768, out_features=636, bias=True)
  (value): Linear(in_features=768, out_features=636, bias=True)
  (dropout): Dropout(p=0.0, inplace=False)
)
num_heads: 12 head_dims: 64 all_head_size: 768 =>
num_heads: 12 head_dims: 53 all_head_size: 636

ASTSdpaSelfAttention(
  (query): Linear(in_features=768, out_features=768, bias=True)
  (key): Linear(in_features=768, out_features=768, bias=True)
  (value): Linear(in_features=768, out_features=768, bias=True)
  (dropout): Dropout(p=0.0, inplace=False)
)
num_heads: 12 head_dims: 64 all_head_size: 768 =>
num_heads: 12 head_dims: 64 all_head_size: 768

ASTSdpaSelfAttention(
  (query): Linear(in_features=768, out_features=768, bias=True)
  (key): Linear(in_features=768, out_features=768, bias=True)
  (value): Linear(in_features=768, out_features=768, bias=True)
  (dropout): Dropout(p=0.0, inplace=False)
)
num_heads: 12 head_dims: 64 all_head_size: 768 =>
num_heads: 12 head_dims: 64 all_head_size: 768

ASTSdpaSelfAttention(
  (query): Linear(in_features=768, out_features=768, bias=True)
  (key): Linear(in_features=768, out_features=768, bias=True)
  (value): Linear(in_features=768, out_features=768, bias=True)
  (dropout): Dropout(p=0.0, inplace=False)
)
num_heads: 12 head_dims: 64 all_head_size: 768 =>
num_heads: 12 head_dims: 64 all_head_size: 768

ASTSdpaSelfAttention(
  (query): Linear(in_features=768, out_features=768, bias=True)
  (key): Linear(in_features=768, out_features=768, bias=True)
  (value): Linear(in_features=768, out_features=768, bias=True)
  (dropout): Dropout(p=0.0, inplace=False)
)
num_heads: 12 head_dims: 64 all_head_size: 768 =>
num_heads: 12 head_dims: 64 all_head_size: 768

ASTSdpaSelfAttention(
  (query): Linear(in_features=768, out_features=768, bias=True)
  (key): Linear(in_features=768, out_features=768, bias=True)
  (value): Linear(in_features=768, out_features=768, bias=True)
  (dropout): Dropout(p=0.0, inplace=False)
)
num_heads: 12 head_dims: 64 all_head_size: 768 =>
num_heads: 12 head_dims: 64 all_head_size: 768

ASTSdpaSelfAttention(
  (query): Linear(in_features=768, out_features=768, bias=True)
  (key): Linear(in_features=768, out_features=768, bias=True)
  (value): Linear(in_features=768, out_features=768, bias=True)
  (dropout): Dropout(p=0.0, inplace=False)
)
num_heads: 12 head_dims: 64 all_head_size: 768 =>
num_heads: 12 head_dims: 64 all_head_size: 768

ASTSdpaSelfAttention(
  (query): Linear(in_features=768, out_features=768, bias=True)
  (key): Linear(in_features=768, out_features=768, bias=True)
  (value): Linear(in_features=768, out_features=768, bias=True)
  (dropout): Dropout(p=0.0, inplace=False)
)
num_heads: 12 head_dims: 64 all_head_size: 768 =>
num_heads: 12 head_dims: 64 all_head_size: 768

ASTSdpaSelfAttention(
  (query): Linear(in_features=768, out_features=768, bias=True)
  (key): Linear(in_features=768, out_features=768, bias=True)
  (value): Linear(in_features=768, out_features=768, bias=True)
  (dropout): Dropout(p=0.0, inplace=False)
)
num_heads: 12 head_dims: 64 all_head_size: 768 =>
num_heads: 12 head_dims: 64 all_head_size: 768

ASTSdpaSelfAttention(
  (query): Linear(in_features=768, out_features=768, bias=True)
  (key): Linear(in_features=768, out_features=768, bias=True)
  (value): Linear(in_features=768, out_features=768, bias=True)
  (dropout): Dropout(p=0.0, inplace=False)
)
num_heads: 12 head_dims: 64 all_head_size: 768 =>
num_heads: 12 head_dims: 64 all_head_size: 768

ASTSdpaSelfAttention(
  (query): Linear(in_features=768, out_features=768, bias=True)
  (key): Linear(in_features=768, out_features=768, bias=True)
  (value): Linear(in_features=768, out_features=768, bias=True)
  (dropout): Dropout(p=0.0, inplace=False)
)
num_heads: 12 head_dims: 64 all_head_size: 768 =>
num_heads: 12 head_dims: 64 all_head_size: 768

ASTSdpaSelfAttention(
  (query): Linear(in_features=768, out_features=768, bias=True)
  (key): Linear(in_features=768, out_features=768, bias=True)
  (value): Linear(in_features=768, out_features=768, bias=True)
  (dropout): Dropout(p=0.0, inplace=False)
)
num_heads: 12 head_dims: 64 all_head_size: 768 =>
num_heads: 12 head_dims: 64 all_head_size: 768

--Epoch 1/30: Loss-t/v: 0.0271/0.2447, Acc-t/v: 0.7969/0.9400, Best Acc 0.9400 Time: 35.57s
--Epoch 2/30: Loss-t/v: 0.0338/0.2622, Acc-t/v: 0.7325/0.9300, Best Acc 0.9400 Time: 71.05s
--Epoch 3/30: Loss-t/v: 0.0215/0.2407, Acc-t/v: 0.8300/0.9375, Best Acc 0.9400 Time: 106.94s
…
--Epoch 28/30: Loss-t/v: 0.0236/0.2463, Acc-t/v: 0.8106/0.9175, Best Acc 0.9475 Time: 1016.07s
--Epoch 29/30: Loss-t/v: 0.0249/0.2544, Acc-t/v: 0.8025/0.9200, Best Acc 0.9475 Time: 1051.59s
--Epoch 30/30: Loss-t/v: 0.0287/0.2355, Acc-t/v: 0.7644/0.9325, Best Acc 0.9475 Time: 1087.40s
--Post Train Acc:0.9325
>-------------------Summary---------------------
--Base Param: 86.23M, Macs: 103.40G, Acc: 94.5000%
--Pruned Param: 62.70M, Macs: 74.86G, Acc: 93.2500%
<------------------------------------------------
--output.shape: torch.Size([1, 50])
--Base Params:86.23M, MACs:103.40G
--Loading: pths/esc50_1-ast-seed_42.pth
--Base Acc:0.9450
ASTSdpaSelfAttention(
  (query): Linear(in_features=768, out_features=432, bias=True)
  (key): Linear(in_features=768, out_features=432, bias=True)
  (value): Linear(in_features=768, out_features=432, bias=True)
  (dropout): Dropout(p=0.0, inplace=False)
)
num_heads: 12 head_dims: 64 all_head_size: 768 =>
num_heads: 12 head_dims: 36 all_head_size: 432

ASTSdpaSelfAttention(
  (query): Linear(in_features=768, out_features=492, bias=True)
  (key): Linear(in_features=768, out_features=492, bias=True)
  (value): Linear(in_features=768, out_features=492, bias=True)
  (dropout): Dropout(p=0.0, inplace=False)
)
num_heads: 12 head_dims: 64 all_head_size: 768 =>
num_heads: 12 head_dims: 41 all_head_size: 492

ASTSdpaSelfAttention(
  (query): Linear(in_features=768, out_features=708, bias=True)
  (key): Linear(in_features=768, out_features=708, bias=True)
  (value): Linear(in_features=768, out_features=708, bias=True)
  (dropout): Dropout(p=0.0, inplace=False)
)
num_heads: 12 head_dims: 64 all_head_size: 768 =>
num_heads: 12 head_dims: 59 all_head_size: 708

ASTSdpaSelfAttention(
  (query): Linear(in_features=768, out_features=744, bias=True)
  (key): Linear(in_features=768, out_features=744, bias=True)
  (value): Linear(in_features=768, out_features=744, bias=True)
  (dropout): Dropout(p=0.0, inplace=False)
)
num_heads: 12 head_dims: 64 all_head_size: 768 =>
num_heads: 12 head_dims: 62 all_head_size: 744

ASTSdpaSelfAttention(
  (query): Linear(in_features=768, out_features=744, bias=True)
  (key): Linear(in_features=768, out_features=744, bias=True)
  (value): Linear(in_features=768, out_features=744, bias=True)
  (dropout): Dropout(p=0.0, inplace=False)
)
num_heads: 12 head_dims: 64 all_head_size: 768 =>
num_heads: 12 head_dims: 62 all_head_size: 744

ASTSdpaSelfAttention(
  (query): Linear(in_features=768, out_features=756, bias=True)
  (key): Linear(in_features=768, out_features=756, bias=True)
  (value): Linear(in_features=768, out_features=756, bias=True)
  (dropout): Dropout(p=0.0, inplace=False)
)
num_heads: 12 head_dims: 64 all_head_size: 768 =>
num_heads: 12 head_dims: 63 all_head_size: 756

ASTSdpaSelfAttention(
  (query): Linear(in_features=768, out_features=756, bias=True)
  (key): Linear(in_features=768, out_features=756, bias=True)
  (value): Linear(in_features=768, out_features=756, bias=True)
  (dropout): Dropout(p=0.0, inplace=False)
)
num_heads: 12 head_dims: 64 all_head_size: 768 =>
num_heads: 12 head_dims: 63 all_head_size: 756

ASTSdpaSelfAttention(
  (query): Linear(in_features=768, out_features=744, bias=True)
  (key): Linear(in_features=768, out_features=744, bias=True)
  (value): Linear(in_features=768, out_features=744, bias=True)
  (dropout): Dropout(p=0.0, inplace=False)
)
num_heads: 12 head_dims: 64 all_head_size: 768 =>
num_heads: 12 head_dims: 62 all_head_size: 744

ASTSdpaSelfAttention(
  (query): Linear(in_features=768, out_features=756, bias=True)
  (key): Linear(in_features=768, out_features=756, bias=True)
  (value): Linear(in_features=768, out_features=756, bias=True)
  (dropout): Dropout(p=0.0, inplace=False)
)
num_heads: 12 head_dims: 64 all_head_size: 768 =>
num_heads: 12 head_dims: 63 all_head_size: 756

ASTSdpaSelfAttention(
  (query): Linear(in_features=768, out_features=768, bias=True)
  (key): Linear(in_features=768, out_features=768, bias=True)
  (value): Linear(in_features=768, out_features=768, bias=True)
  (dropout): Dropout(p=0.0, inplace=False)
)
num_heads: 12 head_dims: 64 all_head_size: 768 =>
num_heads: 12 head_dims: 64 all_head_size: 768

ASTSdpaSelfAttention(
  (query): Linear(in_features=768, out_features=768, bias=True)
  (key): Linear(in_features=768, out_features=768, bias=True)
  (value): Linear(in_features=768, out_features=768, bias=True)
  (dropout): Dropout(p=0.0, inplace=False)
)
num_heads: 12 head_dims: 64 all_head_size: 768 =>
num_heads: 12 head_dims: 64 all_head_size: 768

ASTSdpaSelfAttention(
  (query): Linear(in_features=768, out_features=768, bias=True)
  (key): Linear(in_features=768, out_features=768, bias=True)
  (value): Linear(in_features=768, out_features=768, bias=True)
  (dropout): Dropout(p=0.0, inplace=False)
)
num_heads: 12 head_dims: 64 all_head_size: 768 =>
num_heads: 12 head_dims: 64 all_head_size: 768

--Epoch 1/30: Loss-t/v: 0.0513/0.4126, Acc-t/v: 0.6381/0.8925, Best Acc 0.8925 Time: 36.86s
--Epoch 2/30: Loss-t/v: 0.0276/0.3252, Acc-t/v: 0.7863/0.9300, Best Acc 0.9300 Time: 73.95s
--Epoch 3/30: Loss-t/v: 0.0377/0.3292, Acc-t/v: 0.7050/0.9200, Best Acc 0.9300 Time: 111.50s
…
--Epoch 28/30: Loss-t/v: 0.0438/0.2672, Acc-t/v: 0.6450/0.9350, Best Acc 0.9375 Time: 1046.52s
--Epoch 29/30: Loss-t/v: 0.0267/0.2447, Acc-t/v: 0.7850/0.9350, Best Acc 0.9375 Time: 1084.38s
--Epoch 30/30: Loss-t/v: 0.0152/0.2532, Acc-t/v: 0.8762/0.9275, Best Acc 0.9375 Time: 1121.93s
--Post Train Acc:0.9275
>-------------------Summary---------------------
--Base Param: 86.23M, Macs: 103.40G, Acc: 94.5000%
--Pruned Param: 55.01M, Macs: 65.52G, Acc: 92.7500%
<------------------------------------------------
--output.shape: torch.Size([1, 50])
--Base Params:86.23M, MACs:103.40G
--Loading: pths/esc50_1-ast-seed_42.pth
--Base Acc:0.9450
ASTSdpaSelfAttention(
  (query): Linear(in_features=768, out_features=264, bias=True)
  (key): Linear(in_features=768, out_features=264, bias=True)
  (value): Linear(in_features=768, out_features=264, bias=True)
  (dropout): Dropout(p=0.0, inplace=False)
)
num_heads: 12 head_dims: 64 all_head_size: 768 =>
num_heads: 12 head_dims: 22 all_head_size: 264

ASTSdpaSelfAttention(
  (query): Linear(in_features=768, out_features=168, bias=True)
  (key): Linear(in_features=768, out_features=168, bias=True)
  (value): Linear(in_features=768, out_features=168, bias=True)
  (dropout): Dropout(p=0.0, inplace=False)
)
num_heads: 12 head_dims: 64 all_head_size: 768 =>
num_heads: 12 head_dims: 14 all_head_size: 168

ASTSdpaSelfAttention(
  (query): Linear(in_features=768, out_features=72, bias=True)
  (key): Linear(in_features=768, out_features=72, bias=True)
  (value): Linear(in_features=768, out_features=72, bias=True)
  (dropout): Dropout(p=0.0, inplace=False)
)
num_heads: 12 head_dims: 64 all_head_size: 768 =>
num_heads: 12 head_dims: 6 all_head_size: 72

ASTSdpaSelfAttention(
  (query): Linear(in_features=768, out_features=12, bias=True)
  (key): Linear(in_features=768, out_features=12, bias=True)
  (value): Linear(in_features=768, out_features=12, bias=True)
  (dropout): Dropout(p=0.0, inplace=False)
)
num_heads: 12 head_dims: 64 all_head_size: 768 =>
num_heads: 12 head_dims: 1 all_head_size: 12

ASTSdpaSelfAttention(
  (query): Linear(in_features=768, out_features=768, bias=True)
  (key): Linear(in_features=768, out_features=768, bias=True)
  (value): Linear(in_features=768, out_features=768, bias=True)
  (dropout): Dropout(p=0.0, inplace=False)
)
num_heads: 12 head_dims: 64 all_head_size: 768 =>
num_heads: 12 head_dims: 64 all_head_size: 768

ASTSdpaSelfAttention(
  (query): Linear(in_features=768, out_features=768, bias=True)
  (key): Linear(in_features=768, out_features=768, bias=True)
  (value): Linear(in_features=768, out_features=768, bias=True)
  (dropout): Dropout(p=0.0, inplace=False)
)
num_heads: 12 head_dims: 64 all_head_size: 768 =>
num_heads: 12 head_dims: 64 all_head_size: 768

ASTSdpaSelfAttention(
  (query): Linear(in_features=768, out_features=768, bias=True)
  (key): Linear(in_features=768, out_features=768, bias=True)
  (value): Linear(in_features=768, out_features=768, bias=True)
  (dropout): Dropout(p=0.0, inplace=False)
)
num_heads: 12 head_dims: 64 all_head_size: 768 =>
num_heads: 12 head_dims: 64 all_head_size: 768

ASTSdpaSelfAttention(
  (query): Linear(in_features=768, out_features=12, bias=True)
  (key): Linear(in_features=768, out_features=12, bias=True)
  (value): Linear(in_features=768, out_features=12, bias=True)
  (dropout): Dropout(p=0.0, inplace=False)
)
num_heads: 12 head_dims: 64 all_head_size: 768 =>
num_heads: 12 head_dims: 1 all_head_size: 12

ASTSdpaSelfAttention(
  (query): Linear(in_features=768, out_features=768, bias=True)
  (key): Linear(in_features=768, out_features=768, bias=True)
  (value): Linear(in_features=768, out_features=768, bias=True)
  (dropout): Dropout(p=0.0, inplace=False)
)
num_heads: 12 head_dims: 64 all_head_size: 768 =>
num_heads: 12 head_dims: 64 all_head_size: 768

ASTSdpaSelfAttention(
  (query): Linear(in_features=768, out_features=768, bias=True)
  (key): Linear(in_features=768, out_features=768, bias=True)
  (value): Linear(in_features=768, out_features=768, bias=True)
  (dropout): Dropout(p=0.0, inplace=False)
)
num_heads: 12 head_dims: 64 all_head_size: 768 =>
num_heads: 12 head_dims: 64 all_head_size: 768

ASTSdpaSelfAttention(
  (query): Linear(in_features=768, out_features=768, bias=True)
  (key): Linear(in_features=768, out_features=768, bias=True)
  (value): Linear(in_features=768, out_features=768, bias=True)
  (dropout): Dropout(p=0.0, inplace=False)
)
num_heads: 12 head_dims: 64 all_head_size: 768 =>
num_heads: 12 head_dims: 64 all_head_size: 768

ASTSdpaSelfAttention(
  (query): Linear(in_features=768, out_features=768, bias=True)
  (key): Linear(in_features=768, out_features=768, bias=True)
  (value): Linear(in_features=768, out_features=768, bias=True)
  (dropout): Dropout(p=0.0, inplace=False)
)
num_heads: 12 head_dims: 64 all_head_size: 768 =>
num_heads: 12 head_dims: 64 all_head_size: 768

--Epoch 1/30: Loss-t/v: 0.1257/3.8291, Acc-t/v: 0.0169/0.0425, Best Acc 0.0425 Time: 30.11s
--Epoch 2/30: Loss-t/v: 0.1203/3.6378, Acc-t/v: 0.0394/0.1100, Best Acc 0.1100 Time: 60.31s
--Epoch 3/30: Loss-t/v: 0.1160/3.3568, Acc-t/v: 0.0744/0.1825, Best Acc 0.1825 Time: 90.25s
…
